isaacgymenvs/runs/FrankaRope/nn_working/FrankaRope.pth (torch, 894448 bytes, 36 tensors)

running_mean f8 [123]
00000000: 1b0f 840b 3939 7a3f 0f18 52a2 909e e63f
00000010: 6758 7b31 f1ae d93f 1f13 cae8 114f ea3f
00000020: 3f0f 725b ed13 b6bf 0214 54f3 9b3e c1bf
00000030: 2578 c72c bf87 da3f 2b40 5dbb 2007 993f
00000040: bbf1 c668 36de a93f f1b2 0742 3cdb ab3f
00000050: 1b9c 5945 22ec bc3f ee48 06cd 8e3a a93f
00000060: 4663 921f 02d2 b93f be68 a88e 0d10 a83f
00000070: d9f3 35d4 3ff0 b73f ead4 4bce fbb4 a63f
00000080: 25b4 8d07 2403 b63f 813c fd5d b81c a53f
00000090: 0f4a 2ac0 a711 b43f 7b3a 90ce fe4b a33f
000000a0: 916e fba8 1e18 b23f 7d27 92f8 4b77 a13f
000000b0: 2a82 cfbe bd21 b03f 71f3 1e99 ea43 9f3f
000000c0: 5dbf 93e3 4993 ac3f 8ce3 c323 5c96 9b3f
000000d0: 4f2e cb68 47fc a83f e2eb ff49 0429 983f
000000e0: 484f 5734 4d95 a53f 18e1 7369 eb8a 943f
000000f0: e277 8ed6 9874 a23f faab 1b7f 8a88 913f
00000100: af12 484f c546 9f3f 3076 78ea b45f 8d3f
00000110: 6e4e 1319 b200 9a3f ca79 7dec a3c8 873f
00000120: a1b4 ef7c 700f 953f 5dfc be83 affb 823f
00000130: 2dd7 e4a7 14c7 903f 7724 d7b7 67f5 7c3f
00000140: 24df 7035 c0eb 893f b71d 083e 7caa 753f
00000150: 1cef bcc7 3640 833f 8ac7 7e74 0ce0 6d3f
00000160: facf 6bb6 1cb5 7a3f e093 5ffc c879 633f
00000170: 3025 21eb 7293 713f a829 e920 96fa 543f
00000180: 94c9 69bd 76b0 633f 5a64 3a9a fa4a 413f
00000190: 5cd9 9bbd 5e04 503f 405e 5df5 5a28 133f
000001a0: d7c6 e28e b0b8 2d3f 21ee 1cdc 3de1 d2be
000001b0: 791f 3157 1804 c3be 5e1b 66bc bb8b 6f3f
000001c0: 0423 010d 8128 743f e2a9 1856 60e1 6abf
000001d0: 8fa8 5217 f9e5 773f df03 f619 d655 973f
000001e0: b56d d87f ecba af3f 66fe bedd a164 603f
000001f0: 2a97 afb0 3390 9dbf f921 783f e085 a2bf
00000200: 1b61 5506 08b9 a9bf 761c 678c 1cbc abbf
00000210: 41b3 9c63 c15c a1bf 9d65 ca7a 7140 9fbf
00000220: 5fd9 ba6d f6db 96bf 05e0 52a8 8aa8 91bf
00000230: 11f1 ff1b 6340 81bf a445 7bd8 2b67 7fbf
00000240: d294 f18a 12d3 733f 4d79 6012 da53 173f
00000250: f5ef 686b 1294 8d3f 65f6 b14d 8fbe 783f
00000260: eadf 3a52 cbeb 903f 7124 9c31 6f0e 843f
00000270: 2f39 2260 563e 883f 4dde d36e fe72 843f
00000280: 535b cd56 eaa5 023f ef45 64c1 d2fe 693f
00000290: 0bce 5174 99f0 6a3f 812e 991f f6e9 7f3f
000002a0: 85a7 f9ca d701 59bf 62f6 2190 1030 7b3f
000002b0: 7531 bbda b14d 70bf 4e70 26c4 7622 10bf
000002c0: dde3 8b9c 99c5 61bf 0fe9 6403 9f9e 5dbf
000002d0: 8969 0ed8 f640 473f 2bbc 1e93 5715 6dbf
000002e0: 0a5a 1d07 75e6 6a3f 471d 6903 e7b6 74bf
000002f0: 63e5 b0b9 97d7 753f 473e c906 0dc3 7abf
00000300: 5699 30f2 8c83 763f b8a8 bf41 3f58 7bbf
00000310: 7273 55c6 8e0e 723f ed6d cc96 0ae0 7abf
00000320: dcb7 7359 fb34 693f 58e0 43b0 70b6 76bf
00000330: 278b 0fac 821b 603f 6133 f788 05c0 70bf
00000340: 9906 f791 2c5b 4c3f d86c 6a02 427a 63bf
00000350: 80aa 4d3f e42f 403f 2765 5b9d 5c25 4bbf
00000360: a408 065a 3798 10bf 0175 b7c6 5fb6 b93e
00000370: 7527 e68f 2bd3 c13f f1ca d64d b6a3 9f3f
00000380: fda7 a5ee b3eb e03f 52a8 d7c3 016a e53f
00000390: 2e70 6cb4 3b6d ccbf a890 4ed6 f539 e83f
000003a0: 852f 1fc1 1ec4 df3f 9886 ab6d 00df dc3f
000003b0: 9ea9 6d46 29fa d33f 639e 9de9 b30d d7bf
000003c0: d2ca 3ecc f341 3f3f 15f0 1682 c0f8 cf3f
000003d0: 3923 560b 0860 e63f
0.0064022281951599215 0.7068560762716077 0.4013026221485973 0.822152094523151 -0.0862415645843244 -0.13472318059226046 0.4145353257462168 0.024441253124052913
0.05052347210900928 0.05440700822859935 0.1129781169234864 0.04927488568059056 0.10086072226330342 0.046997474350250354 0.09350966387678684 0.04434954541458487
0.08598542389309267 0.04123474261597782 0.07839439813168546 0.03768917342687402 0.07068053842106738 0.0341132870608609 0.06301484974347518 0.030532518001325785
0.055811223059093897 0.026940765078481685 0.04879973558635397 0.02359396649988444 0.04215470565728069 0.020061186133689096 0.03604581469629388 0.017122425087034522
0.03054340645214165 0.014342702298615867 0.025393278866273787 0.011613159803968726 0.02056670916129078 0.00926911469275476 0.016384432551794937 0.0070699740876501915
0.012656690245520581 0.005289540597466161 0.009399822206993806 0.0036468737852936627 0.006520378263974886 0.002377407598930223 0.004291008854189912 0.0012804475878903463
0.0024034804476340075 0.000527737011412853 0.000977604408431163 7.308058897358919e-05 0.00022675662279918768 -4.501307047817826e-06 -2.2668834218953754e-06 0.0038508097379152248
0.004921440224344268 -0.003281295925963366 0.005834553730133986 0.022788377127202494 0.061972990614062175 0.00200111021510434 -0.02887039914994386 -0.0361776425816664
-0.0502398021441783 -0.054169551981936445 -0.03391079274147169 -0.03051926910356927 -0.02232346577394517 -0.017244497798600395 -0.008423589984879716 -0.007666751167293571
0.004839966232883701 8.898752693695562e-05 0.014442581084146847 0.006041106967243336 0.01652448357955897 0.009793156339144656 0.011837649163024181 0.009984958417120238
3.556844135370906e-05 0.003173267013274687 0.0032885548740126994 0.007791482371952819 -0.001526318297602165 0.006637634944238609 -0.00398034548170433 -6.154870883395941e-05
-0.0021694183563991513 -0.00180783775938537 0.000709648637087044 -0.00355021576338956 0.003283718652635108 -0.005057241817275688 0.0053325583240221045 -0.006533671269223946
0.00549655015041702 -0.006675955864901599 0.004408414567788609 -0.006561318744185735 0.003077021519508156 -0.005545082273094769 0.0019662429990473687 -0.004089376088313696
0.0008653609874544498 -0.002377633022957331 0.0004939903725305755 -0.000828428480157549 -6.330335464180492e-05 1.5325784045097247e-06 0.1392569019920377 0.03089794969646226
0.5287723218036714 0.6691902947470771 -0.22208353337998815 0.7570752320939578 0.4963452230410826 0.4511109419819177 0.3121436298157735 -0.36021135152848255
0.0004769535264543104 0.24977880813628475 0.6992225858130957

running_var f8 [123]
00000000: c2bb 035f 90b6 f73f 515f 8617 b0a1 e23f
00000010: 5a3f 7c51 4422 0040 6a32 0d0a dfc3 d53f
00000020: 2539 42b4 81da ff3f 62f5 35c5 e1b1 f13f
00000030: 7643 b725 feb8 f33f 71f6 06b4 127e bd3f
00000040: a07e 6fcb 65eb b43f 3ee4 1dde b120 c33f
00000050: 8ad3 c581 2a26 bd3f 322e e0c6 4619 c23f
00000060: 76be 940d d770 ba3f 442b 1abc f166 c13f
00000070: 6fbe 22ba db12 b93f db7f 813c ffe8 c03f
00000080: d0d7 53d4 a98a b83f 6367 0cd5 9678 c03f
00000090: 1818 9b6e 04e3 b73f 4d07 6f44 8ebc bf3f
000000a0: 7cd2 597e c23f b73f 07d2 6f3a 34bc be3f
000000b0: ff27 694e 87a5 b63f e530 d63a 17a4 bd3f
000000c0: 4e83 a412 fc21 b63f df56 48cf b398 bc3f
000000d0: 6c05 95fc bd6a b53f fcb8 273c 7a73 bb3f
000000e0: fd1d c243 e47a b43f 072a 8f26 8c6a ba3f
000000f0: 066a 4208 a7d5 b33f 8587 59c9 ada3 b93f
00000100: dabf 3560 5984 b33f 8deb 66c8 7993 b83f
00000110: 088b a7fd 83ca b23f f955 c288 7575 b73f
00000120: 75c1 fab4 aa23 b23f efd8 139e f082 b63f
00000130: e28d eaa0 ad9d b13f 971d 3aaa 6084 b53f
00000140: abd4 b802 db2d b13f c92f 58dc 5f37 b43f
00000150: 70f3 9ec1 c5ae b03f dcf6 8e96 6f31 b23f
00000160: f66b 480b 6f48 af3f 5856 9500 9b94 ae3f
00000170: 30d1 b52e 1e21 ab3f c2d4 2469 14e3 a63f
00000180: 0dbe 4249 11d3 a43f 8437 edf8 33af 9b3f
00000190: 1712 aa07 e273 993f 0bb2 ba3f e8f7 853f
000001a0: 5c71 3759 b161 843f 73cf 9be6 eaf1 613f
000001b0: 6ab1 0e8c 3db5 5f3f 8984 907b 9b4f a93f
000001c0: 1ffe 02ee 2d5b a13f ed3f 85e0 2da4 b33f
000001d0: 7e27 41bf dedf ab3f 3312 62ff 8fab c33f
000001e0: ac6f b9a7 40e8 c43f d71e 503c 8477 e23f
000001f0: eae7 51ec 9fd3 f53f ff92 7e17 70c5 f43f
00000200: 24b8 3e11 b565 f63f 9d17 0c02 407b f53f
00000210: b72e 2a99 ffea f43f c255 e329 1cb4 f33f
00000220: e54e 702f 4153 f43f d1e3 c471 0e39 f33f
00000230: 2793 f318 77e9 f33f 43d9 0e1b f8c6 f23f
00000240: 5a51 ef15 26af f33f 9457 be65 b2bc f23f
00000250: 2021 69aa 9f73 f33f ae10 dce7 abc5 f23f
00000260: 0d5f 6098 0909 f33f a680 b746 1b5b f23f
00000270: dcd0 d30e cc95 f23f f8fd c79a 2699 f13f
00000280: 1c61 97c1 128a f23f 666f 8099 9672 f13f
00000290: 584e 61cb 7cdd f13f 62fa e270 31e8 f03f
000002a0: 2d52 ba43 1e03 f13f d2e6 0ad6 8b6c f03f
000002b0: 99ae 534c 0415 f03f 28cc 67cf d052 ef3f
000002c0: 9f76 4da9 4685 ee3f d015 94f9 2b55 ed3f
000002d0: c407 4315 4b7b ed3f 8717 89d4 8ac9 eb3f
000002e0: db94 cb34 62d7 ec3f 6086 1dae e9f3 ea3f
000002f0: b0a6 383c d02e ec3f 8d25 517f c991 ea3f
00000300: 2e79 e5b6 5664 eb3f 0818 15b1 3070 ea3f
00000310: a7b5 debc 0767 ea3f e383 4e42 1407 ea3f
00000320: 5ac2 360c 88aa e83f ba29 8313 d978 e83f
00000330: 357b fffa de7a e53f 5633 d5ce b92d e53f
00000340: 0713 ed35 b361 e03f c060 7225 f2c1 df3f
00000350: bb00 a400 aa53 d23f ab56 09a7 e6c4 d13f
00000360: 5eff b14b 4f2d ba3f 54f4 8897 e327 b83f
00000370: 282b 4895 2d48 c43f 9df0 3983 8cb8 c13f
00000380: 0a61 7cc0 fa4d b13f 3f8e 9fd6 f1ef a13f
00000390: 319c 149b 9f32 a73f 6e9e 8190 95a0 a33f
000003a0: 5871 d543 e8d6 b13f 2972 5dc0 9289 b33f
000003b0: 8fb0 5926 b110 bd3f e081 3889 4239 b03f
000003c0: 3700 9875 5267 d53f f20f 1ae5 ec73 953f
000003d0: c5f5 537f 5772 8b3f
1.4820712768084694 0.5822372874708696 2.016731869320137 0.34008003217312555 1.9908463517527448 1.10592820201358 1.2326642487789434 0.11520497222132932
0.08171688286483425 0.14943526597542872 0.11386361759453059 0.1413963767121103 0.10328430253570695 0.1359541099994549 0.0979440049584299 0.1321105046690708
0.09586583551194328 0.1286800899768493 0.09330775928819468 0.12397088213677172 0.09081664643037785 0.12005926539115573 0.08846326507878642 0.11578507601206274
0.0864560647501211 0.11170505343065028 0.08366000572734372 0.1072307965148162 0.08000017790083543 0.10318828526866507 0.07747882796903846 0.10015379110111951
0.07623823737026161 0.09600030081393936 0.07340264265762297 0.09163603390546617 0.07085673254437615 0.0879354844981639 0.06881222895258746 0.08405117183621368
0.06710594955878217 0.07896994714263807 0.065166816492775 0.07106683183425438 0.06109950077753716 0.059727519818505825 0.05298704452698855 0.044701230845399134
0.04067281741424376 0.027035533970142037 0.024856120794099903 0.010726751751769311 0.009951959166692496 0.002190550604490521 0.0019353009267702678 0.049435480912742476
0.033898768715058696 0.07672392589051898 0.05444236836099402 0.1536731717097993 0.16333778562227275 0.5770894220340449 1.364166186451707 1.2982026021720114
1.3998308824188905 1.3425903396577958 1.3073726637839351 1.2314721714259211 1.2703258374285096 1.2014297908883587 1.2444983458200995 1.1735764557793835
1.2302609307126517 1.1710685705524826 1.2157284409204934 1.173259645177534 1.18970641634036 1.1472428095221772 1.1615715579219374 1.099890331853997
1.1587092935715821 1.090475654235854 1.116574091390154 1.0566877755769828 1.0632612844102696 1.026500545600744 1.005131052162062 0.9788593340766782
0.9537690455142246 0.9166469454364066 0.9213004508276232 0.8683523322185785 0.9012919455678018 0.8422745133104392 0.8807145286748064 0.8302962767276526
0.8559983799166611 0.8261950930252633 0.8250769318453209 0.813364152436517 0.7708168257286829 0.7647519475079243 0.6712489034942793 0.6618317641929063
0.511926274608954 0.4962125173274323 0.28635644972383617 0.27764288246303676 0.10225387189893584 0.09435865830978801 0.15845269955783547 0.1384444847825578
0.06759612273561202 0.035033757638100564 0.045308101349569425 0.038334535493785946 0.06968547493074106 0.07631795116817187 0.113535949576262 0.06337371683230897
0.3344312809349534 0.02095003269506885 0.013401683400384177

count f8 []
00000000: 0000 0004 0060 9a41
110624769.0

running_mean f8 [1]
00000000: 578c b69b 146c e63f
0.7006934205313752

running_var f8 [1]
00000000: 30a9 bac2 368a a93f
0.049882613440177415

count f8 []
00000000: 0000 0010 0060 7a41
27656193.0

a2c_network.sigma f4 [6]
00000000: 1ba4 c4bf 8c04 adbf 5055 efbf 2183 e4bf
00000010: 789d 26c0 d8d2 29c0
-1.5362581 -1.3517013 -1.869791 -1.7852517 -2.6033611 -2.653494

a2c_network.actor_mlp.0.weight f4 [256, 123]
00000000: 4ca4 f9bb 35bf 8fbd 62f2 283c 2848 06bc
00000010: 5cfa a4bd ce9a 3cbd 7a0d 34be 4d1c d93b
00000020: 0fc7 533e f90a 63bd 5d14 de3c a290 5cbd
00000030: 5057 0bbe d3df 35be 42e7 6dbe fba3 2e3d
00000040: 1e1d e13d c502 783d 4688 5dbd f98b 633d
00000050: c234 043e f85a c13c 6923 ac3d a0bb f03d
00000060: 304e cb3d 3e79 223e e397 c03a 7e83 eebb
00000070: 29b9 b1bd 79b1 bc3d e502 45bd cf11 4a3e
00000080: 63ea 16bc 2cf2 9dbd 734c 8d3e a9e2 a53d
00000090: 6dcd 5bbd 3189 803d 48ae 863d 41bb 773d
000000a0: f42f 7abe 407d a83d 8a31 f5bd 2d31 28be
000000b0: 9942 2c3d acad 67bb 11e6 dfbc d2cd 4fbe
000000c0: 2a59 aabd 9b32 7ebc 93f9 96bd 1e94 d1bc
000000d0: a9cb 58be 7bd4 babe f762 ed3d 2c40 913d
000000e0: 6551 49be 64cf 0f3e cfda 613d 93e2 293d
000000f0: b80f d2bd ee5f 58bd e61f 3c3e d719 bdbd
00000100: fa8b 8ebe 0489 d23c fc9d 04be 3fce 373e
00000110: e998 98bd f535 0f3e 2f6f 8e3c 46bc 2cbe
00000120: c818 393b fb46 9a3d 2da2 843d 2c37 8cbb
00000130: 24c3 5cbd f759 0cbe 2ca1 083e 4428 203e
00000140: 6c6b 673e a0e1 03be 9737 ce3d 99f1 d8bd
00000150: a03c 383e 9fe7 26be ca20 ae3b e370 aabd
00000160: ad69 283c c8ca 49be 1c38 24bd 1ba5 283c
00000170: c745 a13d 4aae 023e d850 c8bb 6ef3 813c
00000180: e3c7 ac3d 2121 8fbd 0102 e83d 6fdb 19be
00000190: 5aa1 1fbe 843a 2ebd e788 833a 696c 353d
000001a0: 838e f6bc 0983 9bbd 9a0c 6fbe 5c56 f1bd
000001b0: 7cd3 5cbc 2603 103e 6966 8c3e c4b3 f23d
000001c0: d772 a23d d6cf 45bd b98b 5c3d c7ab 1fbe
000001d0: 7ea3 f3bd 3596 18be aafd b1bd ab3d b13d
000001e0: 0fed 4dbe c368 82bd ce2e 8dbd caaa 6bbe
000001f0: 42d6 a4bc 3281 c33c 8f2b 443d 0af2 ccb9
00000200: 9b02 6d3d 1fef 613d b897 473e 4fe6 02be
00000210: a763 9d3b 1f2a fdbd b36f 24be 9bd0 5cbd
00000220: 0213 2c3e 4e03 a23d 1b7f 82bd 7878 dbbd
00000230: f975 49bd dd93 43bd e7c9 1dbe 7df4 353e
00000240: 421e 013d a7c2 e13c d089 e8bc cc56 303e
00000250: b805 22be 7f80 2b3d d6f1 763c ed71 fb3d
00000260: e504 643d 77bd 59bc b6a6 433e 99a2 5a3e
00000270: 26bb 03bd f971 f33d 405c 61bd 8da7 3dbe
00000280: 114b 1abe a69c 5bbd d7d6 91bd 9095 0ebe
00000290: 7f96 a83d b389 343d a7f1 7a3e 0b8e 28bd
000002a0: 73ea 1c3c 55d0 8dbe 8339 a23d 44fe 993a
000002b0: dc0b a43d 42a9 2cbe aa4f c83d d3e7 8cbc
000002c0: bc00 04bf 6be8 9d3d adc9 46bd 2b49 863d
000002d0: d18d 143e b77f 423c d0ec 023e 67a7 9abe
000002e0: 68d6 a83d fd60 b6bd 1962 663e 1ed4 913d
000002f0: 3136 033e 4127 37be d151 8a3e 335f 623e
00000300: 0488 2dbd e657 7d3e 7c15 743e 2f6a 483d
00000310: db66 0cbd 98bd e1bb 391e e9bd 0955 b13d
00000320: 93cf 06be de7b 05be 96be 40be 2b1c 9e3d
00000330: 58f1 22be f4f4 fb3d ffbc c03c 60cf a8bd
00000340: d691 0cbe dac0 dabd 58df 42be 3a00 02bc
00000350: 6eca 9dbd f670 2fbe 3231 813e 4529 02be
00000360: 1635 573b c319 86bd 0bff 89bd 8f69 8fbe
00000370: d787 e1bd f10b 99be b3a8 bcbd ebf5 463e
00000380: 05a3 65bd 3b1d 30bd 51f3 94bd 6e98 0e3e
00000390: b240 153e 4c15 723d 3df9 923e bc05 49bd
000003a0: 5d87 cfbc 37a6 4fbc acee 0fbd 6b87 55be
000003b0: a77a 1c3e c19c 96bd 6bef 10be febe b1bc
000003c0: e50a 62bb 12bc d3bc 715e e33d 1be5 a93d
000003d0: 439b babe 8bc4 c33c ca9e cebc 7721 303e
000003e0: 8133 9a3d 1322 6abd b743 63bc 208d 1ebe
000003f0: 5731 90be 9793 423d 5f77 ac3d cecd 85b4
-0.0076184627 -0.07018892 0.010311695 -0.008195914 -0.08055565 -0.04604607 -0.17583266 0.006625688
0.20681404 -0.055430386 0.02710932 -0.05384887 -0.13607526 -0.17761163 -0.23232749 0.042636853
0.10991882 0.060549516 -0.05408504 0.05555341 0.1291075 0.023602948 0.084051915 0.11754537
0.099270225 0.15866563 0.0014693703 -0.0072788587 -0.086778946 0.09213538 -0.048098464 0.19733356
-0.009211156 -0.07712206 0.2759739 0.080998726 -0.053662706 0.06276167 0.0657621 0.060481314
-0.24432355 0.082270145 -0.119723395 -0.16425009 0.0420557 -0.003535132 -0.027331384 -0.20293358
-0.08317788 -0.015514995 -0.07371821 -0.025583323 -0.2117144 -0.36490235 0.11591142 0.07092318
-0.19659956 0.14043957 0.055140313 0.041475844 -0.10256904 -0.05282586 0.18371543 -0.09233444
-0.2784117 0.0257001 -0.12950891 0.1794977 -0.0745104 0.13985427 0.017387 -0.16868696
0.002824353 0.0753307 0.06476245 -0.004279038 -0.053897038 -0.13706194 0.13342732 0.1564036
0.22599572 -0.12879038 0.10069197 -0.10592956 0.17991877 -0.16299294 0.0053139674 -0.08322313
0.010279101 -0.19706261 -0.040092573 0.01029327 0.07874637 0.12761799 -0.006113153 0.015863147
0.08436563 -0.06988741 0.11328507 -0.15025114 -0.15588894 -0.042536274 0.0010035307 0.04429284
-0.030097252 -0.07593352 -0.23344651 -0.1178405 -0.013478156 0.14063701 0.27421883 0.11850694
0.0793206 -0.04829391 0.053844187 -0.15592872 -0.11896418 -0.1490105 -0.08690961 0.0865434
-0.20109962 -0.06367638 -0.06893693 -0.2301437 -0.020121697 0.023865316 0.047893103 -0.00039090245
0.057863813 0.055159684 0.1949147 -0.12783168 0.0048031393 -0.123615496 -0.16058235 -0.05390988
0.16804126 0.079107866 -0.063719 -0.10716337 -0.049184773 -0.047748435 -0.15409051 0.17769046
0.031522997 0.027558638 -0.028386027 0.1722061 -0.15822494 0.04187059 0.015072307 0.12277589
0.05566873 -0.013289801 0.19106564 0.21351089 -0.0321609 0.11886973 -0.055019617 -0.18520947
-0.15067698 -0.05361619 -0.071210556 -0.13924241 0.0823183 0.044076633 0.24506246 -0.041151088
0.009577381 -0.27698007 0.07921126 0.0011748751 0.080100745 -0.16861442 0.0978082 -0.017200386
-0.5156362 0.07710346 -0.048532177 0.065569244 0.14507224 0.01187127 0.1278565 -0.30205843
0.0824402 -0.08905218 0.22498359 0.07120536 0.12813641 -0.17886068 0.27015546 0.22106628
-0.042366043 0.24740562 0.2383632 0.04892939 -0.034277778 -0.0068890564 -0.11382718 0.08658797
-0.13165121 -0.13035533 -0.18822703 0.07720216 -0.15912378 0.123025805 0.02352762 -0.08242679
-0.13727507 -0.10681315 -0.19030511 -0.007934624 -0.07704626 -0.17132935 0.25232846 -0.12711056
0.0032838038 -0.065478824 -0.06738099 -0.28010222 -0.110122375 -0.29891923 -0.09211864 0.19429748
-0.05606367 -0.042996626 -0.072729714 0.13925335 0.1457546 0.05910234 0.2870578 -0.049077734
-0.0253331 -0.012673906 -0.035139725 -0.20852439 0.15281163 -0.07354117 -0.1415383 -0.021697517
-0.0034491357 -0.025846515 0.11101998 0.082956515 -0.3644658 0.02389743 -0.0252222 0.17200266
0.07529355 -0.057161402 -0.013871125 -0.15483522 -0.28162643 0.047504034 0.08421206 -2.4922923e-07

a2c_network.actor_mlp.0.bias f4 [256]
00000000: 9ce9 a1bd 082d 003d 17c4 86be 006c 493e
00000010: ae61 7c3e 9b17 923e 1e06 6c3e 56e2 d5bd
00000020: 03f4 7d3e 0a80 013e b0d9 36bd fa47 27be
00000030: 100c 0e3e c881 673e ace9 26bd d448 a73d
00000040: 2aed 493e aeab 09be a10d eabc d74a 5abe
00000050: 1c8c ee3d 3662 a5bd 8d0f 87be 011e 11be
00000060: 00d7 993e b958 0d3e 13af 41be 7571 773e
00000070: 1f98 11be ecc9 4dbe 8306 873e 1dcd 573e
00000080: bbb6 1abe ad59 4abe e9b9 573e 5644 9dbe
00000090: 1d12 fd3d b680 f6bd 49f7 00be f5d6 023e
000000a0: 95fd 86be f933 863e 57c1 0f3e 3b6c 083e
000000b0: ff7f 74be 059b 243e d81e 3c3e ea7e 823d
000000c0: 62a5 413e e0a9 9dbe ae74 14be 2f7b d03d
000000d0: 18b0 603e cca7 8abd af19 913e 923a 3ebe
000000e0: 56be 93bd 211d 86be b073 0bbd 01fb bdbe
000000f0: 8c51 86be 2356 5e3e 8712 343e f7ed e4bd
00000100: 8672 3d3e 4fba 353d e567 0f3e eb11 a6bd
00000110: 1a3d b6bc b946 bbbe 7a7e 64be 32d1 71be
00000120: 38d3 4bbe 080a b43d 89d9 9abd 4748 59be
00000130: 91a3 493e 14fa 9dbe eb4b 16be 8630 4d3d
00000140: ed7b 9c3e 560f 273e 3c98 df3c 9740 c63d
00000150: 8a02 6f3e bf0c 40be 4460 52be 0407 993e
00000160: 95e0 4cbe 351c 9e3e 5684 283e af82 35bc
00000170: a47e 6d3e 8628 8ebe 748a 6d3c a78c 44be
00000180: 5c39 98bd 0d81 5d3e b80d c03d db6d 3d3e
00000190: b855 413e 43b5 30be 18e8 6e3e 4f8e 633d
000001a0: 9a12 943c 6d25 8dbd e4a5 893e 9d5f 25be
000001b0: 815f 7fbe 9382 853c 39cc 89bc 7ad9 95b9
000001c0: 2224 4b3e 29d1 8dbc c5c6 313e 951c 46bc
000001d0: 9f2b 623e 40e4 433e 3afc 49be 036b f73c
000001e0: 6937 5c3e a264 2b3e fcba bdbe da73 fc3d
000001f0: 9419 80be 6be1 493e fae0 9d3d 2e84 24be
00000200: 1574 26be 5f1a 47be ddb0 853d 8ccb bebd
00000210: 0f11 323e c562 96be ff4b a8bd 0e6a 5f3e
00000220: da0d e93d 7a38 8ebe 0c78 513e 59a1 e53d
00000230: 4492 0f3d fa26 6cbe 6cd4 90bd 6eb2 6cbe
00000240: 4ed6 90be 39f1 fcbd cb38 de3d a980 47be
00000250: 9356 f43d faec 913d 1752 503e 566f 743e
00000260: d8e1 b33c 11ff bebd b5a4 203e d1d8 573e
00000270: c65f aabe 66af 9fbe 709a 4cbe f077 543e
00000280: 3f12 18bd f26c a33d ceb1 193a 5463 843e
00000290: bfb7 75be e13a 23be 3b21 45bd 4c28 9abd
000002a0: 4f4e 623e 3557 30be 30f2 0ebd 7ad2 2dbd
000002b0: 8647 333e 4e47 92be 1393 b1bd 8fad 1abe
000002c0: 4a77 a0be 1564 9f3d db4a 803d 4b39 ce3d
000002d0: 7323 a3bc 7df6 2d3e 6782 6b3e b5a8 92bd
000002e0: 8ee8 3f3e 83c6 843e 03ca c3bc ffab 883e
000002f0: 2e5e ee3d ef10 97be e7aa c93c b30a 9b3e
00000300: ff0a 973d e4b9 79be e968 8cbe f8f9 3cbe
00000310: 1f0e a93e 9099 94bd eb67 a73e 0eac a43e
00000320: faed 38bc 86af 763d 9d3f 44be aa76 04bd
00000330: b9a8 683e f958 8abe e88c 3ebe 0cd8 483e
00000340: 2633 0a3e a76b 913c 6e80 763e 206b 173e
00000350: 8869 26be 04db ff3d 7ef9 cd3d 68ad 813e
00000360: 576a 0dbb 7c0a 223e a868 1e3e a00c 9ebe
00000370: d29c 973e dbdd 7b3e f06c 3bbe 320b 29be
00000380: 9ce2 383e d94f 43be eb81 623d fddc ee3d
00000390: 8c17 4b3e 6967 493d 4199 043d 5eb1 67be
000003a0: 3997 083e f59a 17bb fbc7 493d 6610 b1bd
000003b0: bacd 283e e6eb 60be 4c42 20be 74e7 d13d
000003c0: 53cf 363e c9bf 833d 0404 7a3d a314 edbc
000003d0: 4db6 a4be 200e 303e 9a5d a1bd df9d b5be
000003e0: c3c9 a73d d2d2 8a3e 7b83 93be 4dc5 3b3e
000003f0: 0e17 963a 0241 f03d 133d b23e 3bea 24bd
-0.079058856 0.031292945 -0.2632148 0.19670105 0.24646637 0.28533635 0.23049209 -0.10443561
0.24800114 0.126465 -0.044641197 -0.1633605 0.13871789 0.22608101 -0.04075019 0.08168188
0.19719377 -0.13444397 -0.028570952 -0.21317612 0.116478175 -0.08075373 -0.26379052 -0.14171602
0.30046844 0.13803376 -0.18914442 0.24164374 -0.14218186 -0.20096558 0.26372156 0.21074338
-0.15108769 -0.19760771 0.21067013 -0.307162 0.123569705 -0.120362684 -0.12594332 0.12777312
-0.26365343 0.26211527 0.14038597 0.13322537 -0.23876952 0.1607476 0.18371141 0.06371863
0.18910745 -0.30793667 -0.14497635 0.101797454 0.21942174 -0.06770286 0.28339908 -0.1857703
-0.07214038 -0.261941 -0.034045875 -0.37105563 -0.2623409 0.21712546 0.17585193 -0.11178201
0.18500718 0.04436713 0.14004476 -0.08108886 -0.022245932 -0.36577395 -0.22313872 -0.23614958
-0.19904792 0.08790976 -0.07561023 -0.21218978 0.19691302 -0.30854857 -0.14677398 0.050095104
0.30563298 0.16314444 0.02729427 0.09680288 0.23340812 -0.18754862 -0.20544535 0.29888165
-0.20007546 0.30880895 0.16456732 -0.011078521 0.23192841 -0.27765292 0.014498342 -0.1919428
-0.074328154 0.2163126 0.09377617 0.18498938 0.18880355 -0.17256646 0.23330724 0.055555638
0.018075276 -0.06891904 0.26884377 -0.16149755 -0.24938776 0.016297614 -0.016821014 -0.00028581527
0.19838002 -0.01731165 0.17360981 -0.012091775 0.22086953 0.19130039 -0.19725123 0.030202394
0.21505512 0.16737607 -0.3705672 0.123267844 -0.25019515 0.19714896 0.077089265 -0.16066048
-0.1625522 -0.19443654 0.065278746 -0.09316167 0.1738932 -0.2937223 -0.0821762 0.218178
0.11379595 -0.27777463 0.2045595 0.11212415 0.0350516 -0.23061743 -0.07071766 -0.2311494
-0.28288502 -0.12350697 0.10850676 -0.19482674 0.11930575 0.07125278 0.20343815 0.23870596
0.021958277 -0.09325994 0.15687831 0.21078803 -0.33276194 -0.31188506 -0.19980788 0.20748878
-0.037126776 0.07979764 0.0005862982 0.2585703 -0.23995875 -0.1594043 -0.048127394 -0.07527217
0.22100185 -0.17220767 -0.034898937 -0.042437054 0.17507753 -0.28570026 -0.0867063 -0.1510527
-0.3134101 0.07782761 0.062642775 0.100695215 -0.019914364 0.16988559 0.22998963 -0.071610846
0.18741056 0.25932702 -0.023900038 0.26693723 0.11639057 -0.29505107 0.024617625 0.302816
0.07375144 -0.24387318 -0.2742379 -0.1845473 0.33018586 -0.07255852 0.3269647 0.32162517
-0.011287207 0.060225986 -0.19164892 -0.03233973 0.22720613 -0.27021006 -0.18608439 0.19613665
0.13496074 0.017751528 0.2407243 0.14786959 -0.16251194 0.12492946 0.100573525 0.2532761
-0.0021578276 0.15824312 0.1546961 -0.30869007 0.29611832 0.2459635 -0.18303275 -0.16508177
0.18055195 -0.19073428 0.05529968 0.11663244 0.19833201 0.049170885 0.032372717 -0.22626254
0.13338937 -0.0023133133 0.04926298 -0.08645706 0.16484728 -0.21964988 -0.1565029 0.10249224
0.17852525 0.064330645 0.061038986 -0.028940504 -0.32170334 0.17192888 -0.07879181 -0.3547201
0.0819278 0.27113968 -0.2881125 0.18336983 0.0011450963 0.11731149 0.3481222 -0.040262442

a2c_network.actor_mlp.2.weight f4 [128, 256]
00000000: f8b4 91bc 0871 15be a7c3 753d bf61 ffbd
00000010: bc07 8dbd 5dff 89bc e078 d2bd be7a aebd
00000020: 0029 c83d b167 e1bb 5414 91bd eb46 e93c
00000030: 7b6f 303d 870c f4bc 246f 48be 0c5a 8fbc
00000040: f527 8ebc 2474 503d 9f74 b53d e66c e4bc
00000050: 0fe1 ddbd 53e6 25be 41a3 a83d 9602 a9bc
00000060: d596 bcbd 0493 8c3d 6e37 41bc 1061 913c
00000070: 3d93 f8bc dba2 363d b81c 603b 216a 84bd
00000080: 8e71 7f3d 0cf5 7d3d 9735 0cbe 6003 c8bc
00000090: 585a 833d f539 7c3c bc7b 44bd ecdd 083e
000000a0: e84d f13c 94ef 013e d095 68bd 7a8e d6bc
000000b0: 6263 203c 5257 38bd c987 22be 2ac7 703d
000000c0: cfbf c5bc 2932 363d 881b 1f3e 0588 6cbd
000000d0: 0fe5 3aba 77f8 0cbe 246a 463c 985c 52bc
000000e0: d770 f0bd 8ec6 053e 4408 c6bd 19d5 013e
000000f0: 480b 6c3e d7fc 2c3d 2cda 7b3c bd89 0f3e
00000100: 6c47 a0bc 94af b7bc 55f7 cabc 616c 613d
00000110: 8462 dfbd 13d2 0e3e 0be7 633e 802c 0ebd
00000120: 25a8 f1bc 6386 87bd ff9f 003e f497 8bba
00000130: 415b 4abb 7e6d 2c3c 653c 383e 918d c43d
00000140: fb2c 0dbe a7aa cabd b8fc 14be 3348 25bd
00000150: da09 f3bd fe81 0c3d 5e08 a43c c18e 7abd
00000160: 6fca 9cba 4356 9bbd a13d 04bd 9eca c0bc
00000170: 79e2 1bbd e7b0 323d a9e2 30bd a1f1 c03d
00000180: 3c45 bdbd 51f2 63be a28f b93b 457d 41bc
00000190: 9577 9d3d 1aef 383e 09f2 3bbe 515e 9fbc
000001a0: 5a4f 83bd e02e 173d 84d6 2e3d d8fc adba
000001b0: 5be1 5abc a072 adbb 8ae5 39bc b033 0abd
000001c0: bcac f5bd 84cb 21bc c158 a6bd 7200 aabd
000001d0: 8886 8abe c86d 683d 73d6 663d 087b 423d
000001e0: de0d e9bc a2c1 9e3c a310 52bd a1bf 8bbd
000001f0: cefc 8c3c c7f5 263d e549 a7bb 19f6 6c3d
00000200: 17cd babd dfc1 be3d b8fd 52be 1014 9d3a
00000210: 73be ccba bd85 47bd 3354 6dbd dccd d7bd
00000220: 30f8 ff3d 6125 583e c5f8 b5bc a357 f1bc
00000230: 21d8 44bd 3585 e6bd 8fde 2e3d 16ff 903d
00000240: cc6f 163e 5a61 38be a7e1 843c c0f6 893d
00000250: b3b5 51bd 48fb 02bd c228 8e3d 3681 973d
00000260: ec3c fc3c 5206 3fbd 3401 eebd 8337 08bd
00000270: 404c 553d 6057 8d3d 4231 8a3d 92c5 07bd
00000280: 4422 a43c bdff b0bd 8429 5e3d fc61 5abd
00000290: 9604 eebd 06d0 79bc feb7 87bd 2392 65bd
000002a0: c7bf 38bd f253 803c 8f7e 5fbd c58c a6bd
000002b0: 94ab 2bbd 3772 f5bd cc5e 26bd 6593 43bd
000002c0: d3eb 193e cdc1 bbbc 26cb d7bd 3f73 dd3d
000002d0: 26e8 143e e9a4 7abd 5a6c 68bd 6627 6bbd
000002e0: 68d6 243d 381d 013c d907 0fbe fcbf 563d
000002f0: e606 26bd 9550 093d c8b1 623d 9f0a b4bd
00000300: 52c3 afbc b6b4 4cbc 876c 8ebd bcc0 c43c
00000310: dfbe 773d 596d e2bd ad20 cbbd 2252 a83d
00000320: ad0f 5abe 395c c83c 75e0 663c be00 cabd
00000330: 3af8 483b bc97 323e 9aaf 3a3d 10fc 91bc
00000340: 7c01 0dbe 57c9 1bbc 1981 08bd d007 943d
00000350: 45af 00bd effc 88bd 68f6 543d 170f 1dbd
00000360: 51cd e1bb a599 bd3d d9a9 923b cfc8 b33d
00000370: 678d 1ebe 296e 57bd 935e bb3c d79f 60bc
00000380: be9c c4ba fc15 24be e846 52be 2b38 24ba
00000390: ff5e 5d3c e954 18bd 9ab1 3dbb 1017 513c
000003a0: f233 263d 953d 4b3c 229a 10be 4f57 e2bd
000003b0: a831 c93d ecd1 7e3d bf24 693d c759 7b3d
000003c0: 7618 063d 5425 92bd b711 efbc c8e8 a2bd
000003d0: f97d a13d a44f 953c 531b a3bc 4692 a039
000003e0: f22c f73d 6a36 dabc 12f7 e73d a704 0ebd
000003f0: 8fbc 68bc 2e89 7abd e12b c6bd 6d78 88bd
-0.017786488 -0.14593899 0.06000104 -0.124698155 -0.06886241 -0.0168454 -0.10276961 -0.08519505
0.09773445 -0.006878816 -0.070839554 0.0284762 0.043075066 -0.02979113 -0.19573647 -0.017498992
-0.017353037 0.05089201 0.08860134 -0.027883958 -0.10833942 -0.16201143 0.08234263 -0.020631116
-0.092084564 0.068639785 -0.011793001 0.017746478 -0.030343646 0.044588905 0.0034196805 -0.06465555
0.062364154 0.062001273 -0.13692318 -0.024415672 0.06413716 0.015394677 -0.047969565 0.13365906
0.029456094 0.12689048 -0.056783497 -0.026190985 0.00978932 -0.04500515 -0.1587211 0.058783688
-0.024139313 0.04448143 0.15537846 -0.057746906 -0.00071294693 -0.13766657 0.012110267 -0.012839459
-0.117402725 0.13064024 -0.09669545 0.12678947 0.23051178 0.042233314 0.01537184 0.14017387
-0.019565307 -0.02242259 -0.02477614 0.055035 -0.10907462 0.13947324 0.22256105 -0.034710407
-0.029499123 -0.06617429 0.12561034 -0.0010650144 -0.0030877145 0.010524152 0.17991789 0.09597314
-0.1378669 -0.098958306 -0.1454953 -0.040352058 -0.118671134 0.034303658 0.020023521 -0.061171297
-0.0011962185 -0.075848125 -0.032285336 -0.023534115 -0.038057778 0.04362574 -0.04318491 0.09421087
-0.09241721 -0.22260405 0.0056628743 -0.011809652 0.07688824 0.1805996 -0.18354048 -0.019454153
-0.064116195 0.036909938 0.042685047 -0.0013274206 -0.013359393 -0.0052932054 -0.01134623 -0.0337407
-0.11995837 -0.009875182 -0.08122397 -0.08300866 -0.27055764 0.05674532 0.05635686 0.047480613
-0.028448995 0.01937944 -0.051285397 -0.0682366 0.01721039 0.040761735 -0.0051052445 0.057851885
-0.09121149 0.09314322 -0.20604599 0.0011984129 -0.0015620723 -0.048711527 -0.057941627 -0.105373114
0.1249851 0.21108009 -0.02221335 -0.029460734 -0.04805768 -0.11255876 0.042692717 0.07079904
0.14691085 -0.18005887 0.01622088 0.06736517 -0.051198673 -0.03197792 0.06941368 0.07397692
0.030790769 -0.046636887 -0.11621323 -0.033256065 0.05207467 0.06901431 0.067476764 -0.033147402
0.02003587 -0.08642528 0.05423881 -0.0533161 -0.116219684 -0.015247351 -0.066268906 -0.05604757
-0.045104768 0.015665028 -0.054564055 -0.081323184 -0.041911677 -0.119846754 -0.04061775 -0.04774799
0.15031366 -0.02291956 -0.10536794 0.10812997 0.14541683 -0.061192427 -0.056743957 -0.05741062
0.040243536 0.007880501 -0.13967837 0.052429184 -0.040533923 0.033524115 0.055345327 -0.08791088
-0.02145544 -0.012494257 -0.06954294 0.024017684 0.060484763 -0.11056013 -0.09918342 0.082187906
-0.21295042 0.024458038 0.014091601 -0.09863423 0.0030665533 0.17440695 0.045577623 -0.017820388
-0.13770097 -0.009508452 -0.033326242 0.072280526 -0.03141715 -0.06688868 0.051992804 -0.03834447
-0.0068909307 0.09257821 0.004475814 0.087785356 -0.15483628 -0.05259529 0.022872245 -0.013709984
-0.0015000326 -0.16024011 -0.20534861 -0.0006264473 0.013511418 -0.03719035 -0.002894497 0.012761846
0.040576883 0.012404819 -0.14121297 -0.11051809 0.09823924 0.062211916 0.05691981 0.061364915
0.03273817 -0.07136026 -0.029183252 -0.07954556 0.078853555 0.018226452 -0.01991049 0.0003062656
0.120691195 -0.026637275 0.11326422 -0.034672406 -0.014205112 -0.06116598 -0.09676338 -0.066635944

a2c_network.actor_mlp.2.bias f4 [128]
00000000: ac7b 0bbe 83fb 1a3e 4787 5bbe d551 883d
00000010: 5ca5 55be 2f17 17be ee27 2d3e 2b3b 25be
00000020: 162e b6bd 27a2 d1bc 51a1 3b3d 4e86 50be
00000030: 0d85 1bbe 4e65 de3c 1eab 0b3e 4438 7dbe
00000040: 19fe 41be ed46 88bd 317c 893d 47b8 3ebe
00000050: 95cb 75bd 8c03 34be 7e88 6b3e 7071 0c3b
00000060: d153 5c3d 1d7f 13ba fcfe 98bd dcd2 bebc
00000070: 0f6d 19bc 1bd7 aa3c 8f2e 4abe 6c84 ad3d
00000080: 51fc 4fbe fec9 ea3d 379b 8abe f896 4c3d
00000090: bec7 0fbd 84a0 63be d398 19be ce9c d7bc
000000a0: f69d 91be bc71 f73c 2dc0 373e 9a81 2cbc
000000b0: 79a2 db3b 8a49 b93c 8f84 363c c456 60be
000000c0: 0e71 6cbe fde9 e7bd 1202 7fbe 764f 14be
000000d0: 6572 97be 1d65 e33d cad0 02be a9e5 e4bc
000000e0: 807f 8bbe 4fe5 2abe e5d5 c4be 5fe6 0a3e
000000f0: a200 aebd da15 1bbe a4c5 503e 75cb a8bd
00000100: 4101 a5bd 0fbf a7be 28cc 8a3d acba 01be
00000110: e89f e03d 0658 983d bf01 543e 7aff 9cbc
00000120: 57ff 103e 885c 14bd 6dfd 953c 8f4e 993c
00000130: b9e5 1ebe cdf7 cf3d f682 9e3d e17c 033d
00000140: 29c2 82be f967 273d 65ea fcbd fe4a 273d
00000150: 0db2 873d f145 70be 1c9f efbd 8bb3 a53d
00000160: d7a1 07be 8cbb c3bd efa0 95bd e5cd 49bb
00000170: 09c1 4dbe 5f3c 19bd ae7f ba3d 5ec8 c93d
00000180: 4193 d6bd 3dad a9be 6ca4 b93c 4706 75be
00000190: 14c1 53be f920 d8bb 9d1f 92be 180f 543d
000001a0: 6093 2c3e 352b 42be 99cd 8a3d aa09 11be
000001b0: 322d 86bb 6515 443e 4c36 d63d 139b 2d3e
000001c0: abe3 1f3e e6f9 b6be bc09 90bd 8969 91be
000001d0: 02da 223e 7374 68be 6b15 72bd 1129 4d3e
000001e0: 1c86 bc3d b1c2 603e 5110 053e 6067 c9bd
000001f0: 0d4d 6dbd 8011 ce3d 7e62 febb d59c 63be
-0.13621396 0.15135007 -0.21438323 0.06656233 -0.20863861 -0.14754938 0.16909763 -0.16135852
-0.08895509 -0.025590016 0.04580814 -0.20363733 -0.15187474 0.027147915 0.13639495 -0.24728495
-0.18944587 -0.06654153 0.06713141 -0.18624984 -0.060008604 -0.17579478 0.23001286 0.0021429919
0.05379087 -0.00056265463 -0.074705094 -0.023293905 -0.0093643805 0.020854523 -0.19744323 0.08472523
-0.20311095 0.11464308 -0.27071545 0.049948663 -0.0351026 -0.222292 -0.14999704 -0.026319887
-0.28440827 0.0302056 0.17944403 -0.010528946 0.006702718 0.022618074 0.011140003 -0.21908098
-0.23090002 -0.113239266 -0.24903134 -0.14483437 -0.29579464 0.1110327 -0.12774959 -0.027941542
-0.27245712 -0.16689037 -0.3844444 0.13564442 -0.084962144 -0.15145054 0.20387894 -0.08241931
-0.0805688 -0.32762954 0.06777221 -0.12668866 0.10968 0.07438664 0.20703791 -0.01916479
0.14159904 -0.036221057 0.01830932 0.018714217 -0.1551732 0.10154686 0.077398226 0.032101516
-0.25538757 0.04087064 -0.12349395 0.040843002 0.06625757 -0.2346418 -0.117002696 0.08090886
-0.13245331 -0.09557256 -0.07306086 -0.0030792889 -0.20093168 -0.03741109 0.09106384 0.0985267
-0.10477305 -0.33139983 0.02266141 -0.23928176 -0.20679122 -0.0065957275 -0.28539744 0.051772207
0.16853094 -0.18961795 0.06777496 -0.14163843 -0.004094743 0.19148786 0.10459575 0.16953687
0.15614192 -0.35737532 -0.07033107 -0.2840083 0.15903476 -0.22700672 -0.059102457 0.20035197
0.09205267 0.21949269 0.12994505 -0.0983417 -0.05793481 0.100619316 -0.007763206 -0.22227795

a2c_network.actor_mlp.4.weight f4 [64, 128]
00000000: 8541 a83d bec4 8e3c 1c60 253d 9147 f9bd
00000010: dcf5 2f3d 83ad b33d b99d 0abc c534 a8bc
00000020: a2c4 28be 7435 dfbd 7942 febd aa1a c33c
00000030: 953a c63b b903 803d 9723 a73d 93e5 c9bc
00000040: 2b24 5bbd e87d afbd e24c 243e 7be5 72be
00000050: 4f70 c43b bf4a fd3c fd1e 83bd 34c2 5ebd
00000060: 3ac2 68bd 903d 043e 451f e3bd 0241 5a3d
00000070: afe7 5bbc 5bc4 b43d a0fe aabd 79ff 343d
00000080: b851 86bd 32e3 11bc 7bfb 39bd c7b1 0c3d
00000090: ab2d 783d 9801 56bd 12bc 15be 5eb3 213e
000000a0: d433 aabd ed58 993d effa cabd 4acd b93d
000000b0: 36a2 023e 431c 1abc 76cd 163e 3c0e 1b3e
000000c0: fea5 cdbd bb0b 0b3e 4821 c93d 78b9 363d
000000d0: 1b15 6c3c d4b3 2cbd e0b4 b2bb f926 9ebd
000000e0: c3da 4bbd 7806 093e 1022 103e 0bc5 2cbd
000000f0: 11c4 72bb 0a00 fb3d 665c 173e 5418 8bbd
00000100: cb5b 25bd d546 15bd 2f7d dd3d 570d d93c
00000110: 078c acbd 3bd3 dcbd da54 edbc acc1 773d
00000120: 055a 953d 9a95 a4bd 628b a23d c6e9 613e
00000130: 9099 9fbd 769b a23c 75b7 02be 812c 48bd
00000140: 0c34 f7bd 73d2 94bd 1a17 24bd 77cf cabd
00000150: 0ffd d63c 2eeb 7f3d 44ba 59bd eaba de3c
00000160: ab7e 03bd 76d9 353b de22 f03c ad75 4f3d
00000170: 798e 033e 036d 10be ef20 ef3b d7f9 083c
00000180: 4d4d 7b3c ecaf 09be 924a 1abe a35d 32b8
00000190: 1aa4 21bd e836 7f3c a839 6b3d 8391 36bd
000001a0: 91cd bcbd 3454 b73d 6692 783d 97d6 c83d
000001b0: b5b7 c23c e28c 99bd d12e a93c 4cff 9e3c
000001c0: 629e 2abd adf3 e4bc 7a6f 29be 30a6 cdbd
000001d0: bdbb febb b3e2 c2bd 60bb c13d 4823 84bd
000001e0: 65fc a63c 5b2d b8bd b7d0 55bc 93b0 46bd
000001f0: 2570 d2bd 6b2b f9bc fa0f a93d 83e2 083c
00000200: a1d1 0a3e 88ee aabd 9919 5f3d 2c97 d93d
00000210: 99f5 37bd 4da3 de3c 6f5f f7bb 2bc9 b5bd
00000220: bc5b aa3d 7691 8bbc 2acb 023c 6dd7 ce3b
00000230: 4f70 90be e919 e0bc 5f63 3ebd 4447 eb3d
00000240: 7007 833d 0cca 5cbe bf5a 403d 3688 7abd
00000250: 90ab bebd de1b be3d 8f52 18bd a862 d03d
00000260: d0c7 eb3d fccd c5bd e8b9 ffbc e733 42bd
00000270: 2667 febd 21a1 55bd 697d 293e 83e4 363d
00000280: ba93 17bd 7d72 0cbe 1ebf 7fbd b2e3 f43c
00000290: a8f1 43bd a2a6 3d3d 97d2 e63c 7e4b 543e
000002a0: 144f 513c 0a18 a73d d50a 9c3b 5b71 33bc
000002b0: a07d 24be deed b03c 21c2 94bc a713 c1bd
000002c0: bfb0 f3bc 11dc 043e 8b9a 35bd 58e0 79bd
000002d0: 1062 e03b f17f 343d d023 8b3d b677 193e
000002e0: 5e61 7dbd 462b a43d c0a9 5abd af4c 45bd
000002f0: ced3 2c3e 924a abbc 98ca 55be 9cfc c63d
00000300: c9fe 0e3d e0cb 3a3d 829b e53d 3762 763c
00000310: 126f 953d ee0d c13d 7e92 9f3d 374b b3bd
00000320: 2c6a 33bd d80b 1dbe 5352 55bd fe4e 0abe
00000330: c33d 073d 1fc2 aebc f9d4 9a3d cbf6 06be
00000340: db9a ec3d 519f 6b3d 28ee 73bd 935f 883d
00000350: fc67 f7bd 07ef bcbd 57b3 cabd b209 44bd
00000360: 37a7 5dbe c32f 34bd 46db 7abe 5097 c0bc
00000370: 6d2b a93c c38a 143d 8cc4 81bc 12bc 18b9
00000380: d97b 1bbd bbb8 babd a74d f6bc 9d64 b33c
00000390: 9f70 423d 5aec 8abd 23b9 d23c 0d89 cd3d
000003a0: 8928 af3c 023b 333d 96ec c8bc 4e3b 69be
000003b0: f4e0 eabb bbbb 3cbd d483 a8be 67e5 223b
000003c0: 38af 953d 9a7b c1ba 6dd1 b5bd 2906 32bd
000003d0: 837d 763d 6370 4abe 9515 37bc e1d8 383d
000003e0: ab91 c9bc bb11 053e 6191 54bd d1f8 7d3a
000003f0: eb76 11bd 0fb2 3f3c eae3 2e3c cd0e a83d
0.08215622 0.017427798 0.04037486 -0.12171853 0.04295908 0.08773329 -0.008460456 -0.020532975
-0.1648126 -0.10898867 -0.124150224 0.023816425 0.006049464 0.0625071 0.08161085 -0.024645602
-0.05350129 -0.085689366 0.16044953 -0.23720352 0.0059948335 0.03091943 -0.06402395 -0.054384425
-0.056825854 0.12914109 -0.110899486 0.053284653 -0.013421937 0.08826514 -0.08349347 0.04418895
-0.06558555 -0.008904265 -0.045405846 0.03434923 0.060590427 -0.052247614 -0.14622524 0.1579108
-0.08310667 0.07487664 -0.09911143 0.09072359 0.12757191 -0.009406152 0.14726815 0.15142149
-0.10041426 0.13578694 0.09820801 0.04461047 0.014409329 -0.042163685 -0.005453691 -0.07722277
-0.049769174 0.13381374 0.14075494 -0.042180102 -0.0037043134 0.12255867 0.14781341 -0.067917496
-0.040370744 -0.036444504 0.108148925 0.026495619 -0.084251456 -0.107824765 -0.028971124 0.060487434
0.072925605 -0.08036347 0.079367414 0.22061834 -0.077929616 0.01984952 -0.12765296 -0.048870567
-0.12070474 -0.072667025 -0.040061094 -0.09902852 0.026243715 0.062480144 -0.053156152 0.027188737
-0.032103222 0.0027748025 0.029313501 0.050649334 0.12847318 -0.14104085 0.007297627 0.008360348
0.015338254 -0.13446015 -0.15067509 -4.2525713e-05 -0.03946314 0.0155770555 0.057428032 -0.044572365
-0.09218896 0.08951607 0.06068649 0.09806555 0.023769239 -0.074975744 0.020652207 0.019408844
-0.041654952 -0.027948225 -0.16546431 -0.100414634 -0.007773845 -0.09515896 0.09459567 -0.06452042
0.020384023 -0.08993026 -0.01305025 -0.048508238 -0.10275296 -0.030416211 0.082550004 0.008354786
0.1355653 -0.083462775 0.05446777 0.10624537 -0.044911955 0.027177477 -0.0075492184 -0.0887626
0.08318278 -0.017037135 0.007983008 0.006312302 -0.28210685 -0.027356105 -0.046481486 0.11488202
0.06397903 -0.2156145 0.046961542 -0.061165057 -0.09310067 0.09282659 -0.03718811 0.10175067
0.115127206 -0.09658429 -0.031216577 -0.04741278 -0.12422018 -0.052155618 0.16551746 0.04465152
-0.037006117 -0.13715549 -0.062438123 0.02989373 -0.047837883 0.04630149 0.028176589 0.20731923
0.012775201 0.08158882 0.0047620335 -0.010952319 -0.16063547 0.021597799 -0.018158974 -0.094275765
-0.029747365 0.12974574 -0.044336837 -0.061004966 0.0068476275 0.044067327 0.0679394 0.14987072
-0.061860435 0.08016066 -0.053384542 -0.048168834 0.16877672 -0.020909581 -0.20878065 0.0971615
0.03491095 0.045604587 0.112113014 0.015038065 0.072965756 0.09426485 0.07791613 -0.087545805
-0.043802425 -0.1533655 -0.052080464 -0.13506696 0.033017885 -0.021332799 0.075601526 -0.13180082
0.11552974 0.057524983 -0.059553295 0.06658854 -0.1208038 -0.09225278 -0.098974876 -0.04786081
-0.21645819 -0.04399086 -0.24497709 -0.023509651 0.02065059 0.036265146 -0.015840791 -0.00014565911
-0.037959907 -0.09117266 -0.030066324 0.021898562 0.047470685 -0.06783362 0.025723046 0.10035906
0.021381633 0.043757446 -0.024526875 -0.22776529 -0.00716793 -0.04607747 -0.32913077 0.0024855973
0.07308811 -0.0014761568 -0.088778354 -0.043462906 0.06017829 -0.19769435 -0.011174579 0.045128707
-0.024605593 0.12995045 -0.051896457 0.00096882606 -0.0355138 0.011700167 0.010674456 0.08205948

a2c_network.actor_mlp.4.bias f4 [64]
00000000: d33b c93d f1f8 3fbe 9592 a93b c20a 9ebd
00000010: afda 33bd 611d 603c 9e28 de3d 08d1 a1bd
00000020: 2120 03be fb0a e7bd 2fae 213e 42f2 61be
00000030: 659b b93d 281f 173e d9e8 a13d 2bd8 8f3d
00000040: 238f b3bd ed97 2abb 2b8a 533d 0640 12bd
00000050: c10a 4dbe 73e5 34be 4e3c b43d 021d 1abe
00000060: aa21 1dbe 7ccb 0f3e 8261 f43d a190 45be
00000070: 632d a43d 90b1 f23c 658b febd 7865 fcbd
00000080: ab04 16be ed6f 62be ab4b d3bd d90a c93d
00000090: 8180 50be 1bac 1a3e 4fc1 073e b2c6 013d
000000a0: 7636 c43d af8f db3c c482 2c3d 214c 62bd
000000b0: 9eba 083d 1204 143d c7fc 5d3d b8c7 6ebe
000000c0: be67 1e3e 7351 51be 84a3 a4bd 0459 3a3e
000000d0: 39a4 06bc 6a86 b6bd ea33 113d 1520 e0bc
000000e0: a96d 493d ed87 d7bd 0c8a c63d acc6 6cbd
000000f0: 4e03 983b 742e 373d c495 0b3e 0c91 0cbe
0.09825864 -0.18747307 0.0051749446 -0.07716896 -0.043909725 0.0136788795 0.10847591 -0.07901198
-0.12805225 -0.11281391 0.15789102 -0.2206507 0.09062842 0.14757979 0.0790574 0.07023653
-0.087675355 -0.0026030496 0.05164544 -0.03570559 -0.20023634 -0.17665653 0.08800565 -0.15050128
-0.15344873 0.14042467 0.11932661 -0.19293453 0.08016469 0.029625684 -0.12428931 -0.12324041
-0.14650218 -0.22113009 -0.10317167 0.09816522 -0.2036152 0.15104716 0.13257335 0.03168363
0.095807 0.026801912 0.042116895 -0.055248383 0.033381097 0.036136694 0.054196145 -0.23318374
0.15469262 -0.20441227 -0.08039001 0.1819802 -0.008217865 -0.08912356 0.0354499 -0.027359048
0.049176846 -0.10523973 0.09694299 -0.057806656 0.004639066 0.044722036 0.1363135 -0.13727206

a2c_network.value.weight f4 [1, 64]
00000000: b93b 913c 36e6 dbbb 4d33 57bd 14b1 1cbc
00000010: 32fb 9a3b f8f7 7cbc 0a9e 0abc 8d38 1fbd
00000020: fa9e 54bc 6260 5b3c 8a65 f83b fb0a 653b
00000030: 164d 9d3c 6ec7 b0bc 8a9c 2fbd bcf6 0cbc
00000040: 989c b5b9 02e9 aebc 76c3 31bd 58f9 c43c
00000050: 7b8b 01bd 665e e6bd d7cb 193c bd46 19bd
00000060: 1970 c8bb eeb3 193c fe64 b73c f26e b4bd
00000070: 7cd9 cb3b ed56 c63c 911a 8cbc 415f 90bc
00000080: af6c 91bc 1c03 aebd 86ae b6ba aaa4 ec3b
00000090: e538 85bd 6ed4 173c c3b4 423d e59f 0b3c
000000a0: b19d 52bc a398 0e3c 681b c0bb 5dad d7bb
000000b0: 9492 45bb 1fe2 5cbc afe3 db3b 0264 5f3b
000000c0: c102 d23c 6c7a 57bd c9d1 b43c 946e 7f3d
000000d0: d9ea 9c3c 9660 fa3c 2324 2b3a 3df9 2abc
000000e0: f2de 05b9 5fa8 4f3c dacf 743c 6e84 46bb
000000f0: 6d07 0a3b 2117 b3bc 4fcc 573c e00e 0bbc
0.017728673 -0.006710793 -0.05253916 -0.009563703 0.004729652 -0.01543998 -0.008460531 -0.03887229
-0.012977356 0.013389679 0.007580464 0.0034949172 0.019201797 -0.02157947 -0.042873897 -0.008603748
-0.00034639682 -0.021351341 -0.043399297 0.024044678 -0.03162716 -0.11248474 0.009386978 -0.037420977
-0.0061168787 0.0093812775 0.022387024 -0.08810224 0.0062209945 0.024211371 -0.017102512 -0.017623546
-0.01775202 -0.08496687 -0.001393751 0.007221778 -0.065049924 0.009266956 0.04753567 0.008522009
-0.012854979 0.008703384 -0.005862642 -0.006581946 -0.0030147182 -0.013481646 0.0067104916 0.003408671
0.025636079 -0.052606985 0.02207269 0.062361315 0.019154953 0.030563634 0.0006528517 -0.0104354
-0.00012766922 0.01267442 0.014942134 -0.0030291337 0.0021061555 -0.021861615 0.01317127 -0.008487433

a2c_network.mu.weight f4 [6, 64]
00000000: 72ef 1bbc ef99 713d 1a3b aabd b12a 2b3d
00000010: 49e8 cebd 6246 983d 99d9 dcbd 2677 653d
00000020: 1d8d 633d 85fc b23c 42bd 00be dca9 ebbd
00000030: bca1 623d 3b32 40bd 0d38 45bd 5c9c 9a3c
00000040: 289f 893d 5002 07be 7c65 8a3b c759 7a3d
00000050: 7bd4 b7bd 8e73 3c3d 4cdf 4ebd c610 db3d
00000060: 852a 1abd f6f9 193b 3ecd 633c 904f 85bd
00000070: 1b02 d63b b9c3 a8bc 6e08 1cbe 2774 e9bd
00000080: fe04 42be d054 1f3d 2f2d 95bd bfc7 32bb
00000090: d2ce a5bd 8a41 833d 46ff cabd c7a0 233e
000000a0: 269b a73d d7f9 a0bc 3dc6 af3c 665e 233d
000000b0: 7534 853d f8d0 eebd 7d0a cabc 1183 26bd
000000c0: c119 da3d 281f f73c a52c 773d 4bec 2e3b
000000d0: 9b6f b03d 5f3b 80bb ae9c 1f3d 24e6 e8bd
000000e0: 4f23 9cbb 7d52 0abe 3f0f 5dbc 04f1 fc3b
000000f0: fef6 1abe c3ed 75bc 022a a13c 48a1 afbd
00000100: de20 1cbc eacf 6a3c 3f17 8bbd 27f8 3a3d
00000110: 55fd 563d 3222 ec3d 958e 36be 3c9e f0bd
00000120: 8f9b b1bd a9a3 2a3e 0888 0e3d 7a14 3abe
00000130: 8337 57bd 874e 34bd ea5a a23c b2cf e73c
00000140: 82b5 afbc 2782 ffbc e1e9 87bc 54ef 51bd
00000150: 2bd1 96bd f9ee 4a3d 9863 ccbd 076f 0bbe
00000160: ca7a e63d 2ea5 d2bc e997 d4bd 2ef1 a43c
00000170: c791 5f3d 4b83 eebd 19d9 623d b1cb e23c
00000180: a560 cc3d a15d be3d fab2 f7bd 42f0 79bd
00000190: 70e0 c03c b65a e63c fe73 02bd 1e4a 07bc
000001a0: b38e 123d 0d37 16be 3ec1 29bc 5b9d 2f3d
000001b0: 28c4 293d 9c3b 05bd 1c6c 4f3c 0797 063e
000001c0: 9e31 c6bd 9906 ccbd 8f6c a9bb e708 a33c
000001d0: 75ce b23d aed1 0bbe 15af 0fbe adc2 dfbd
000001e0: b1a7 f3ba dc77 b63c a810 933c 13ab bdbd
000001f0: 4423 01bd 1344 7bbd 5d6f 9d3d bf83 1dbc
00000200: 5d45 c53d a5d8 8a3d 2d1d 92bd 024a e23d
00000210: 5b3f 2a3b a3d4 1b3e 7209 783d 451b 52bd
00000220: 7cd6 e8bd d47d c53d 7ee1 a1bd e530 e8bd
00000230: 5ad1 78bd a296 d6bd 7bf5 913c b7ef 003e
00000240: 2c14 003c e41c 873a 45ec d13d f91a d63b
00000250: a92c 4cbd 015b 863d 4159 edbc acdb 633e
00000260: 84eb 96bb aa41 1a3e f618 a23d 2767 25bb
00000270: f2b4 87bd 5aa7 e8bc 2757 07bd 4922 bcbd
00000280: ef69 533d 5077 763d 1e9a d5bd e447 22bc
00000290: 223c 75bd 7d93 b83d 7672 dbbc a585 0e3d
000002a0: 08b2 ddbd d0c6 dc3d fdf5 1cbd 45e2 033e
000002b0: 4937 42bd 9e91 fc3d e137 60bd 817c bbbd
000002c0: 3eba dd3d 22fd 233b 4c80 8ebd 3cb5 80bd
000002d0: 2b16 8a3d 3df4 37bd 44f0 b73d 497c 10be
000002e0: e005 083d 1c60 13bc d1ea c53d 61ef abbd
000002f0: baae 29be 95f8 a63d 12c3 4ebd 5610 a4bd
00000300: 8878 a43d 102d b8bd c8cf 683d 954a 59bd
00000310: cc86 c83d 61d6 1a3d e779 7dbd 5355 fabc
00000320: 06d9 3d3b c177 0ebe c836 bd3c 9efd a0bd
00000330: 44ba 9e3d d61f da3d 6b42 8ebd 52e0 b73d
00000340: d0db d93b 4814 8fbd c025 be3a c63b 04bd
00000350: c265 ef3c d9ee 6fbc b412 e3bd 2fac eabc
00000360: 7bde 393e 81a7 c53c 2cb8 cbbd 7cf1 c2bd
00000370: d6c2 953d 9afc 963d dc60 cc3d e0c3 983d
00000380: e332 05be 7bb8 10bd 99bf 2c3e 0cc3 a13c
00000390: 393a 10bc 91c0 25bd 4fb0 68bc dfc4 f93d
000003a0: e873 ba3c 935c eabc 2334 8fbd e422 8d3d
000003b0: 29d6 2dbe 98df 313d 2410 883c c419 79bc
000003c0: 2ca9 273d be52 f43c 644f 173d c130 c7bd
000003d0: f605 ddbc 2f52 e83c d767 213d 4aa5 f03d
000003e0: a98e 003b 4b1d dd3c bdc3 09be 363b c0bc
000003f0: 935c ff3c ffce 38bd b694 e93d 01c0 90bd
-0.009517537 0.058984693 -0.08312054 0.04178876 -0.10102899 0.074352995 -0.10783691 0.056021832
0.055554498 0.021848926 -0.12572196 -0.115070075 0.055330023 -0.046922904 -0.048149157 0.018873386
0.0671981 -0.13184476 0.0042235237 0.061120775 -0.08976074 0.04600864 -0.05050592 0.10696559
-0.037638206 0.0023494936 0.013903914 -0.06509316 0.0065310127 -0.02060114 -0.1523759 -0.113991074
-0.18947217 0.038899243 -0.07284009 -0.0027279702 -0.080960885 0.06408985 -0.09911971 0.159793
0.08183889 -0.019650383 0.021456832 0.039884947 0.06504146 -0.116609514 -0.024663204 -0.04065234
0.106494434 0.030166224 0.06034531 0.0026691135 0.08615037 -0.0039133276 0.03896778 -0.11372021
-0.0047649513 -0.1350803 -0.0134924045 0.007719161 -0.15133283 -0.0150103 0.019673351 -0.08575684
-0.0095293205 0.014331797 -0.06791543 0.045646813 0.05248769 0.1152996 -0.17827828 -0.11748931
-0.086722486 0.16663994 0.0347977 -0.18171874 -0.052543174 -0.044020202 0.019818742 0.028297279
-0.021448854 -0.031189991 -0.016591014 -0.05125363 -0.073641144 0.04954431 -0.099799335 -0.13616572
0.11253889 -0.02571353 -0.10380537 0.020134535 0.054582383 -0.11646136 0.05538282 0.027685018
0.09979371 0.09295202 -0.12094684 -0.061020143 0.02354452 0.028119426 -0.0318489 -0.008257417
0.03578062 -0.14669438 -0.010361014 0.042874675 0.041446835 -0.03252755 0.012660053 0.1314355
-0.096774325 -0.09962196 -0.005170412 0.019901706 0.08730785 -0.13654205 -0.14031632 -0.10925803
-0.0018589405 0.02227395 0.017952278 -0.092611454 -0.031527773 -0.061344218 0.076872565 -0.00961393
0.096323706 0.06779603 -0.07134471 0.11049272 0.0025977704 0.15217833 0.060555883 -0.051295538
-0.11369035 0.096431404 -0.07904337 -0.11337451 -0.06074653 -0.1047795 0.01781725 0.12591444
0.007817309 0.0010308293 0.10250143 0.006533977 -0.04984728 0.06560326 -0.028973224 0.22251767
-0.0046057124 0.15064111 0.07914917 -0.0025238486 -0.066263095 -0.028400112 -0.0330421 -0.09186227
0.051614698 0.06017238 -0.10429786 -0.009904835 -0.0598718 0.09012506 -0.026787978 0.034795422
-0.108249724 0.10780108 -0.03832053 0.12879284 -0.047416005 0.12332462 -0.05474079 -0.091546066
0.108265385 0.0025022705 -0.069580644 -0.06284568 0.067425095 -0.04491066 0.08981374 -0.14109911
0.033208728 -0.008995082 0.09663928 -0.08395267 -0.16570559 0.08152882 -0.050479002 -0.08010928
0.08030802 -0.0899297 0.05683878 -0.053049643 0.097913355 0.037802104 -0.061883833 -0.030558264
0.0028968467 -0.1391287 0.02309741 -0.07860874 0.07750371 0.106506035 -0.06946262 0.089783326
0.006648518 -0.0698629 0.00145071 -0.032283567 0.029223327 -0.014644348 -0.11087552 -0.028646557
0.18151276 0.024127724 -0.09947237 -0.09518716 0.07312553 0.07372399 0.09979412 0.07459235
-0.13007693 -0.035332184 0.16869964 0.019746326 -0.008802944 -0.04046685 -0.0142021915 0.12195753
0.022760347 -0.028608596 -0.06992366 0.068914205 -0.16976227 0.043426126 0.016609259 -0.015203897
0.04093282 0.02982461 0.036940947 -0.09726096 -0.026980381 0.0283595 0.03940567 0.117502764
0.0019616282 0.026991507 -0.13453574 -0.023465734 0.031172073 -0.04511928 0.114053175 -0.07067872

a2c_network.mu.bias f4 [6]
00000000: 76b9 2e3c 0b9b f3bc bb36 313d a652 063d
00000010: a331 143d d6a6 9dbc
0.0106643345 -0.029737016 0.043265086 0.032793663 0.03618015 -0.019244593

exp_avg f4 [6]
00000000: 80d9 383a 4bad 803a 492b 8e3a 7837 113b
00000010: 61da 433b b05b fd3a
0.0007051453 0.000981727 0.001084664 0.0022158306 0.0029884803 0.0019329693

exp_avg_sq f4 [6]
00000000: e890 4437 84ae 2d37 993f 3637 b2f9 3b37
00000010: 979d 4237 a4c7 3437
1.1716249e-05 1.0352236e-05 1.0862853e-05 1.1204205e-05 1.1599993e-05 1.07753185e-05
